device count 1
Filtering the images containing characters which are not in opt.character
Filtering the images whose label is longer than opt.batch_max_length
--------------------------------------------------------------------------------
No Transformation module specified
model input parameters 32 128 20 1 64 32 85 15 None VGG LSTM Attn
Model:
Model(
  (FeatureExtraction): VGG_FeatureExtractor(
    (ConvNet): Sequential(
      (0): Conv2d(1, 8, kernel_size=(3, 3), stride=(1, 1), padding=(1, 1))
      (1): ReLU(inplace=True)
      (2): MaxPool2d(kernel_size=2, stride=2, padding=0, dilation=1, ceil_mode=False)
      (3): Conv2d(8, 16, kernel_size=(3, 3), stride=(1, 1), padding=(1, 1))
      (4): ReLU(inplace=True)
      (5): MaxPool2d(kernel_size=2, stride=2, padding=0, dilation=1, ceil_mode=False)
      (6): Conv2d(16, 32, kernel_size=(3, 3), stride=(1, 1), padding=(1, 1))
      (7): ReLU(inplace=True)
      (8): Conv2d(32, 32, kernel_size=(3, 3), stride=(1, 1), padding=(1, 1))
      (9): ReLU(inplace=True)
      (10): MaxPool2d(kernel_size=(2, 1), stride=(2, 1), padding=0, dilation=1, ceil_mode=False)
      (11): Conv2d(32, 64, kernel_size=(3, 3), stride=(1, 1), padding=(1, 1), bias=False)
      (12): BatchNorm2d(64, eps=1e-05, momentum=0.1, affine=True, track_running_stats=True)
      (13): ReLU(inplace=True)
      (14): Dropout(p=0.3, inplace=False)
      (15): Conv2d(64, 64, kernel_size=(3, 3), stride=(1, 1), padding=(1, 1), bias=False)
      (16): BatchNorm2d(64, eps=1e-05, momentum=0.1, affine=True, track_running_stats=True)
      (17): ReLU(inplace=True)
      (18): Dropout(p=0.3, inplace=False)
      (19): MaxPool2d(kernel_size=2, stride=2, padding=0, dilation=1, ceil_mode=False)
      (20): Conv2d(64, 64, kernel_size=(2, 2), stride=(1, 1))
      (21): ReLU(inplace=True)
      (22): Dropout(p=0.3, inplace=False)
    )
  )
  (AdaptiveAvgPool): AdaptiveAvgPool2d(output_size=(None, 1))
  (SequenceModeling): LSTM(
    (rnn): LSTM(64, 32, batch_first=True)
    (linear): Linear(in_features=32, out_features=32, bias=True)
    (dropout): Dropout(p=0.3, inplace=False)
  )
  (Prediction): Attention(
    (attention_cell): AttentionCell(
      (i2h): Linear(in_features=32, out_features=32, bias=False)
      (h2h): Linear(in_features=32, out_features=32, bias=True)
      (score): Linear(in_features=32, out_features=1, bias=False)
      (rnn): LSTMCell(117, 32)
    )
    (generator): Linear(in_features=32, out_features=85, bias=True)
  )
)
Trainable params num :  124981
Optimizer:
Adadelta (
Parameter Group 0
    eps: 1e-08
    lr: 1
    rho: 0.95
    weight_decay: 0
)
------------ Options -------------
exp_name: None-VGG-LSTM-Attn-Seed1111
train_data: crnndata/ICDAR_C1_training
valid_data: crnndata/ICDAR_C1_testing
manualSeed: 1111
workers: 4
batch_size: 512
num_iter: 100000
valInterval: 500
…
